lesson3/models/net.pt (torch, 108986 bytes, 3 tensors)

weight f4 [256, 100]
00000000: 277d 9cbd bbb0 9bbd 1a28 433c ca1b ae3d
00000010: 1afe 283d b7db 373d 02b7 993d 2bae b13d
00000020: 75ca c93d 5266 9dbd d3d6 8fbc 3a74 79bd
00000030: d390 9c3c ffbd c43d ad3e 06bd 1316 bdbc
00000040: 28fe a73d da33 073c 2f1b c6bd c8d1 c73d
00000050: 67e7 b5bd 1b58 80bd 1aa0 38bc 0df8 36bc
00000060: a38e 353d 27eb cd3c 7025 8bbd 872c 0a3d
00000070: 0ab6 093d 5a80 b4bc 17eb 873d 20eb c9bc
00000080: 1fc8 c1bd 6796 36ba df4e bebd 338d b63a
00000090: f70f 163d 60db 8d3c b75a 2d3d 2216 a83d
000000a0: 378e 68bd a55c bcbd f2a1 92bd 8d09 7dbd
000000b0: bd48 9fbd 0074 783d d0ff 7c3d 1a30 4f3d
000000c0: 15ac b6bd 7d57 b7bd 3311 e2ba 7bba ccbd
000000d0: 9db4 38bd da64 313d 0087 013c c3e6 113d
000000e0: fa53 42bd 2217 a5bd 6f9d acbd 30c3 aebd
000000f0: 40f3 11bd b729 5b3d 051a c13d cad5 9cbd
00000100: 9782 983d 87df 9cbd 8265 c83d 5dc8 473d
00000110: 176a af3d c850 893d ca40 53bd 6760 57bd
00000120: adf0 86bd 4d5f 833b 6d5a f43c d376 793d
00000130: 3d95 9bbd 8200 ad3d ef7b b73d 5322 3f3d
00000140: 5bf2 c33d 788e c6bd 3ac6 cbbc 8528 983d
00000150: 0d83 3e3d cd15 33bb 0350 7ebd 47cd b73d
00000160: c527 943d bd78 2e3d 1d25 a23d c02e 9d3c
00000170: cdbc 983a 20d9 5d3d 43ae 053d 723c 933d
00000180: 33b4 8a3b 33ac a23b f7f4 1bbd a0b5 653d
00000190: 604f 973d 3dd2 303d 0078 093c 9ae2 31bc
000001a0: 27b1 bebd 77fc c13d fdb7 7dbd b348 c4bb
000001b0: 7749 713d 208e 9d3d 53ee 803c 6a32 3c3d
000001c0: 551d 9fbd e36f b13d 38cb 89bd cdda fe3c
000001d0: 1b54 cbbd 92f0 893d 28b7 aebd b54c c93d
000001e0: 9577 b43d a7e3 34bc 0dea 8e3c 9260 9e3d
000001f0: e710 aebb 6756 313a 27ba 203d 308a 9fbd
00000200: 33fd b2ba e200 86bd f0e2 273d c782 88bc
00000210: 4b12 a9bd 6758 dd3b 6752 5a3c 0af3 95bd
00000220: 4d78 103d 28f3 9a3d 67d4 b03c ba46 613d
00000230: 407d ffbc 17c0 223d f349 543d 6f87 a4bd
00000240: a7fe 14bc d7b5 9d3d c384 723d cd5d 3dbd
00000250: 1a9f 9e3b 67c1 7dbc 7744 6e3d edff 853d
00000260: 4027 dc3c b3dc 25bd 9ae9 9b3c ab61 ba3d
00000270: eb35 8c3d d748 59bd 35c6 a1bd e762 04bc
00000280: 47b4 493d 480d 993d b06d 9fbd 7528 943d
00000290: 1a6a e2bc e711 63bc c01e 3fbc 1395 263d
000002a0: df21 8e3d 0d66 823d fb45 993d 47ed ae3d
000002b0: 9a7e 75bb 9034 5cbd b342 233c c0b3 54bc
000002c0: fd29 9b3d e70f b5bd 87aa 083d da59 713c
000002d0: 27b9 78bd 7719 163d 33aa 013c 2a94 a83d
000002e0: d34a 9dbd 374b 11bd 506c 093d 3df1 30bd
000002f0: d50c b73d 03a5 74bd 4046 353c ca31 38bd
00000300: 9be3 a63d 036b c43d 3709 92bd 6776 403a
00000310: 9a48 e2bc cd25 20bb 1af9 8fbb ba7f fa3c
00000320: 8357 853d 0b9d bebd d3bf 473d 80bf 48bc
00000330: 8702 3fbd 3b1a c1bd 273d afbd 7a11 9bbc
00000340: 7f52 893d 1398 e83c 0093 6bbc 1a01 32bd
00000350: 6550 9d3d c015 c63d efc4 83bd d838 ab3d
00000360: 4047 263c 60d3 f4bc 5af6 fd3c 6fd1 80bd
00000370: cd25 693b 7320 24bd 43a1 31bd aae0 4f3d
00000380: 8a9f c0bd 2b37 a9bd 9a24 e9bb b3be af3b
00000390: e72a c43c 75f3 a0bd 48f9 86bd 33a1 b3bc
000003a0: baa1 ac3c 207a 353d 2bb6 a63d 97f4 19bd
000003b0: 277f 363c 33d6 2cbc 1a74 f03b c7a5 d83c
000003c0: fa8e c23d 7ddf b4bd c07a 253c 0795 8ebd
000003d0: b781 253d f336 54bc a0e9 f3bc 5a75 e6bc
000003e0: 7d2d 34bd a0ca a63d da21 673c 8082 9ebd
000003f0: 2780 733d 37c3 7bbd 4acd 523d d2e6 87bd
-0.076410584 -0.07602068 0.011911416 0.08501394 0.041257955 0.04488727 0.07505609 0.08675798
0.09853069 -0.07685532 -0.01755849 -0.060901858 0.019112026 0.096065514 -0.032774616 -0.023081815
0.08202773 0.0082521085 -0.096731536 0.097568095 -0.08882027 -0.06266805 -0.01126864 -0.011167538
0.044325482 0.025136543 -0.0679425 0.03373387 0.03362087 -0.022033859 0.06636637 -0.02464825
-0.09461998 -0.0006965161 -0.09292387 0.0013927579 0.03663632 0.01731652 0.04232284 0.082073465
-0.05677625 -0.09197358 -0.07159795 -0.061776686 -0.077775456 0.0606575 0.0617674 0.050582983
-0.08919541 -0.08952234 -0.0017247557 -0.09996506 -0.04509412 0.04330907 0.007905722 0.035620462
-0.047443368 -0.08061053 -0.084284656 -0.08533323 -0.035632372 0.05350658 0.09428791 -0.076579645
0.07446783 -0.07659822 0.09784986 0.048775066 0.08565157 0.06704861 -0.05157546 -0.05258217
-0.06588874 0.0040091635 0.029828275 0.060904335 -0.07596824 0.084473625 0.08959185 0.046663594
0.0956771 -0.096951425 -0.024874795 0.074296035 0.0465117 -0.0027326227 -0.062088024 0.089747004
0.07234148 0.042595614 0.07917235 0.019187331 0.0011652947 0.054162145 0.032636892 0.071892634
0.004232907 0.0049643754 -0.038075414 0.056081414 0.073881865 0.04316925 0.008390427 -0.010857249
-0.09311133 0.09471982 -0.061943043 -0.0059901117 0.058907952 0.07693124 0.015738642 0.045946516
-0.077692665 0.08663919 -0.06728214 0.031110192 -0.09928151 0.06735338 -0.08531028 0.09829084
0.08811871 -0.011040605 0.017445588 0.07733263 -0.0053120735 0.0006764889 0.03924003 -0.07790029
-0.0013655782 -0.06543137 0.04098791 -0.016663922 -0.08255442 0.006754923 0.01332531 -0.07321747
0.035270978 0.075659096 0.021585656 0.05499909 -0.031187654 0.039733972 0.051828336 -0.080336444
-0.009093917 0.07700699 0.059208643 -0.046232034 0.0048407437 -0.015488005 0.058170762 0.065429546
0.026874185 -0.04049368 0.019032288 0.0910066 0.068462215 -0.05304798 -0.07899133 -0.008080221
0.04924419 0.07473236 -0.07784593 0.07234279 -0.027638484 -0.013859249 -0.011665046 0.040669512
0.06940054 0.06367121 0.07484051 0.08541351 -0.0037459494 -0.053761065 0.009964633 -0.012982309
0.07576368 -0.08840924 0.033365753 0.014730895 -0.06072345 0.03664538 0.007914114 0.08231385
-0.07680287 -0.03547212 0.03355056 -0.043198813 0.089379944 -0.05972768 0.011064112 -0.044969358
0.08148881 0.09590723 -0.07130664 0.0007341862 -0.02762251 -0.0024436594 -0.004393709 0.030578483
0.06510832 -0.09307297 0.048766922 -0.012252688 -0.04663327 -0.09428831 -0.08556586 -0.018929232
0.06705188 0.028392827 -0.014378309 -0.04345808 0.0768135 0.09672117 -0.064340465 0.083604515
0.010148823 -0.029885948 0.031001259 -0.06289946 0.003557551 -0.04007001 -0.04336668 0.050751366
-0.0940543 -0.082624756 -0.007114959 0.0053633093 0.023946239 -0.07858936 -0.065905154 -0.021927452
0.021073211 0.04430592 0.081402145 -0.037586775 0.011138714 -0.010549116 0.007338059 0.026446236
0.09499927 -0.088316895 0.010100067 -0.069620185 0.04040691 -0.012952554 -0.029774487 -0.02813213
-0.043988694 0.081441164 0.014107192 -0.07739735 0.059448387 -0.06146547 0.05146531 -0.06635822

bias f4 [256]
00000000: 22d2 94bd 8054 af3b 50fb a43d 55ae a0bd
00000010: a71e 8b3c 533b 623d f00e bf3d 37f3 9bbd
00000020: 2767 b2bc 4721 ac3d a7d3 82bd 0a0d 34bd
00000030: 0d45 7ebc d3a8 e0bc cdde 8dba 58bd a83d
00000040: cdba 353b 107e 11bd 8a32 62bd 60f1 333d
00000050: 6758 553c 0d0b 07bc 208c a53d 0dc4 c4bc
00000060: 5aef 0bbd 0756 5bbd 03cd 873d da94 19bd
00000070: 6d46 343d c7d9 163d 0023 f03c fd7d b6bd
00000080: 8ffe ca3d 3365 6c3b eacd 3f3d 802e 413c
00000090: 1d55 c43d 38f1 c83d 17dd b63d 974d 8d3d
000000a0: 0b9e 8c3d 6d87 b5bc a55b a53d d528 8ebd
000000b0: da64 be3c 23be 083d 273b 70bd c0c7 753d
000000c0: 30e3 73bd 9077 9bbd c7b1 963c 3390 4fbc
000000d0: 0840 8dbd b3a2 d43c 40c8 6f3c 503c 9bbd
000000e0: abc5 ab3d 2d55 313d 67f3 323d b3fa dc3c
000000f0: 6dc3 b9bd 2d54 44bd ba4e eebc 6348 173d
00000100: 0db8 cc3c 4215 a4bd 97e5 b23d c3e2 c33d
00000110: cd5c 88bb d2b7 b1bd 80bb 9ebd a85e 853d
00000120: cd51 143c 478d 01bd 971f 54bd ed5a 243d
00000130: 9a7e 8ebd d0aa 003d 2d4a c23c bd46 37bd
00000140: 97bb a7bd 6f1b 87bd 0a78 8abd 2898 b63d
00000150: a03d f73c fd00 143d 0df9 26bd df13 8cbd
00000160: 4aec 2dbd 4aa3 1ebd 7b58 88bd 57ec c7bd
00000170: faa2 8fbd ebd6 afbd 4faf b1bd 8d1d 0abd
00000180: 9acf dd3c 5af3 00bd f799 063d a86a 9b3d
00000190: f038 cb3d 976a a33d e244 ad3d 9320 053d
000001a0: 83da 03bd 7f5a b3bd 58c3 9fbd cddc c8bc
000001b0: cbaf 83bd 1302 d73c ca64 73bd 406b 9dbc
000001c0: e38a b8bd 4f25 82bd 4bac 8e3d f359 c4bc
000001d0: e0ec cb3d 9f16 a53d cdf9 1b3d 3092 4cbd
000001e0: 0da1 4cbd 9ab1 623a 22b6 b03d 205b b13c
000001f0: 60c5 ebbc 6f06 863d cd3c 6c3b da3f bb3d
00000200: dac6 053d d327 81bd 9a1b 75bd 43e5 1abd
00000210: 3dcc 24bd a0a9 513d 50e9 573d a717 b63c
00000220: 77b4 1abd f0f8 023d fae3 e13c 0046 5cbb
00000230: e368 213d 7a74 323d 1a02 5d3d b55e 8c3d
00000240: d797 aabd f004 1e3d 638d 22bd 4a68 573d
00000250: 8b57 873d 471c bd3c 2063 1fbd 4db0 15bd
00000260: 0715 9d3d 67ce 45bc f386 3b3d c073 c03d
00000270: 1bcc cb3d 8035 ae3d 5fbb 963d 9b83 83bd
00000280: 8f54 c73d 53ad 76bd c095 5fbc aaba 29bd
00000290: 052a aa3d 6dd6 c4bc 1a06 8b3b 823a a2bd
000002a0: 275c e73c 80ab d93c b0a3 303d 6271 b33d
000002b0: ed60 cb3c a72e dc3c 8778 a23c e3c3 19bd
000002c0: 03d9 2abd ed18 113d ba4b 9b3c ed71 7c3d
000002d0: edbb 75bd f731 07bd 4322 23bd 4033 9b3c
000002e0: 5221 a63d 5f89 a8bd 0345 8dbd f3d9 41bd
000002f0: cd27 3f3b 8054 563d f032 673d 9d60 75bd
00000300: 7ba0 acbd 47c9 883d cdea deba 53c6 90bd
00000310: 05d4 983d 48ec c8bd cd24 323c a711 123c
00000320: e0df 643d 67c6 fdbb 2742 17bd ea41 91bd
00000330: 3a67 883c 1d04 c53d ed6e 2abd 6a85 c33d
00000340: 6dc7 bd3d 3078 a73d b3c9 e53b 204e b2bc
00000350: e55a bbbd 1a67 4bbc 3b0d 913d 3317 6b3d
00000360: 535d eabc 9ab5 d93a 4003 73bd dac7 36bc
00000370: b337 e33c bf6a 823d daf1 e7bc 58d6 b13d
00000380: 8770 0c3d 5342 ffbc c048 13bd fad3 0e3d
00000390: 9896 c23d 27c1 7c3c 9341 15bd e3b7 633d
000003a0: dab1 a1bd 838f 96bd 3878 cb3d 2f29 b5bd
000003b0: 0b79 90bd da0b 7bbd f588 c63d 4336 903d
000003c0: c3c1 513d 2db2 4abd 5028 20bd c011 edbc
000003d0: 3283 98bd a0cc 5b3d 4dab dfbb aa92 03bd
000003e0: cdf6 be3c ad39 b4bd bae0 7e3d 2741 02bd
000003f0: f3c5 b83c 8081 3bbc a0f5 243d 0070 613b
-0.07266642 0.0053506494 0.080557466 -0.07845751 0.01698239 0.055232357 0.09329021 -0.07614749
-0.021777702 0.08404785 -0.06388026 -0.043957748 -0.015519393 -0.027424252 -0.0010823846 0.082392395
0.002772975 -0.035520613 -0.05522398 0.043931365 0.013021565 -0.008242381 0.08083367 -0.024019266
-0.03416381 -0.05354884 0.066309 -0.03749547 0.044012476 0.036828782 0.029313564 -0.08910749
0.099118344 0.0036071062 0.046827234 0.011790872 0.095865466 0.09811634 0.08928888 0.06899565
0.06866082 -0.022159303 0.080741204 -0.06941382 0.02324145 0.033384454 -0.058650162 0.06000495
-0.059542835 -0.07591164 0.018395318 -0.012668657 -0.068969786 0.025956487 0.014635146 -0.07579863
0.083873115 0.04329412 0.043689158 0.026975011 -0.09070478 -0.04793184 -0.029090274 0.036934268
0.024990106 -0.08011867 0.08735197 0.09564736 -0.0041614533 -0.08677639 -0.077506065 0.06512195
0.009052706 -0.031628873 -0.05178794 0.040125776 -0.06957741 0.0314129 0.02371701 -0.044745196
-0.08190077 -0.065970294 -0.06761177 0.0891574 0.030180752 0.036133755 -0.040764857 -0.068397276
-0.04246167 -0.038729943 -0.06657501 -0.09761875 -0.07013507 -0.08585914 -0.086760156 -0.033719588
0.027076531 -0.031482078 0.032861676 0.075887024 0.09922969 0.07979315 0.08460404 0.03250177
-0.03219081 -0.08757495 -0.07800931 -0.024519349 -0.06430014 0.026246106 -0.05942229 -0.01921618
-0.090108655 -0.06354772 0.06966456 -0.023968672 0.0995729 0.08060955 0.038080025 -0.049944103
-0.049958277 0.00086476805 0.08628489 0.021649897 -0.02878064 0.06544196 0.0036046982 0.09143038
0.032660343 -0.06306424 -0.059840776 -0.037816297 -0.04023384 0.051187158 0.05271274 0.022228075
-0.03776976 0.031975687 0.027574528 -0.003361106 0.03940667 0.043568112 0.053957082 0.068540014
-0.083297424 0.038578928 -0.039685618 0.052589692 0.06608494 0.023084773 -0.038912892 -0.036545087
0.07670026 -0.012073136 0.045782994 0.093970776 0.099510394 0.08506298 0.07359957 -0.06421586
0.09732925 -0.06022389 -0.013646543 -0.041437782 0.08308796 -0.024028027 0.0042426707 -0.07921316
0.028242184 0.026571035 0.043124855 0.087618604 0.024826491 0.026877714 0.019832863 -0.037540328
-0.041710865 0.03542416 0.018957008 0.061632086 -0.059993673 -0.033006635 -0.039827596 0.018945336
0.08111824 -0.082293265 -0.068979286 -0.047326993 0.002916801 0.05232668 0.056445062 -0.05990659
-0.08429047 0.066790156 -0.0017007232 -0.07069077 0.074623145 -0.09810692 0.010873032 0.008915341
0.055877566 -0.0077445987 -0.036928322 -0.0709265 0.016650785 0.09619925 -0.041609693 0.09546931
0.09266553 0.08177221 0.00701257 -0.021765769 -0.09148196 -0.012414718 0.07082602 0.05739517
-0.028608954 0.0016609908 -0.05932927 -0.011156047 0.02773652 0.063680165 -0.028313566 0.08683461
0.034287002 -0.031159556 -0.03595805 0.034870125 0.0950138 0.0154269105 -0.03643949 0.05559529
-0.078952506 -0.073515914 0.09935039 -0.08845746 -0.07054337 -0.0612906 0.09694091 0.070415996
0.051210176 -0.049486328 -0.039100945 -0.028939128 -0.074468985 0.053661942 -0.0068258406 -0.03212229
0.023311043 -0.08800063 0.062226035 -0.031800415 0.022555327 -0.011444449 0.04027331 0.0034399033

weight f4 [1, 256]
00000000: 2248 523d 4c87 3b3d ece7 053d 18dd 81bc
00000010: 4029 223b 24dd cd3c 00bf b8bb 0872 233c
00000020: 0038 f5b8 825f 053d 1af8 563d c6ff 3abd
00000030: 8097 2a3b a224 0f3d 2ca6 ffbc f095 b13b
00000040: 84aa 46bd 60da 5ebb 2086 653c e065 dabc
00000050: e04d 57bb 8ae6 0bbd 3841 2a3c 4026 6a3d
00000060: 2067 623d 582f 7b3d 201b fa3c 9008 6f3c
00000070: f0fc e4bc 2868 433d 7e95 6a3d 6043 c53b
00000080: 6076 0fbb 3891 ce3c c0e4 0f3d 24da 3abd
00000090: a058 903c fc7e e6bc 5c3d f43c 86ab 51bd
000000a0: 804d 633a 201b b53c 6688 6ebd d89c ffbc
000000b0: 2ef7 69bd 1e23 273d 9014 cd3b b2f1 5cbd
000000c0: 7a30 653d f484 34bd f026 2a3d bc45 8c3c
000000d0: b07d 11bd 6ec3 17bd c062 a13b 8e4f 78bd
000000e0: 0019 7cbc d054 fd3c 74a5 2c3d eabe 563d
000000f0: 9c2f 97bc 98cb 9bbc fc9f 18bd 7013 f0bb
00000100: 2ca5 fbbc e0b4 073b b01d 88bb ee7b 5cbd
00000110: 18e5 fbbc 9051 3d3c c85a b63c 7060 86bb
00000120: de0b 723d 1e8a 053d 803e 6e3b 20a1 7cbb
00000130: 0e84 0abd ae27 3abd 541d 10bd c069 863a
00000140: 0ea0 263d 2442 b4bc 98b7 a9bc 4070 e43b
00000150: 7053 093d c4f9 fb3c 904c f03b 807e adbb
00000160: d83b fabc 5482 d33c 30d2 483c ec6e 1abd
00000170: fc8b eebc c4e3 823c f48f 923c 0061 e939
00000180: e033 dfbc 0017 54bc 801c bfbc 14f9 93bc
00000190: 7033 19bd 1424 7abd d0f1 7b3c 26bc 4f3d
000001a0: 20af 74bb 4082 373d 004a 3739 3c2c e93c
000001b0: bafa 79bd f881 413d 4ace 433d acc9 e1bc
000001c0: aa5c 423d 7c00 54bd 2822 573c 20c2 30bb
000001d0: 1876 17bd 9066 863c 9800 fc3c f42f e33c
000001e0: b802 0c3c 4c9b 68bd 6014 e8bb 0008 d7ba
000001f0: 98f4 1cbd 0838 45bd 80cd 3c3a 7008 cfbc
00000200: ac65 a63c 38cc 03bd b4a3 723d 6832 75bc
00000210: ba6f 59bd d4bc 473d e803 053d 02c1 65bd
00000220: 6022 8bbb 20d0 7c3b a089 703b d06b 033d
00000230: e030 ff3b 00d4 9bbb 7c1a ca3c c018 6f3b
00000240: 1060 ff3b 5ec6 063d 288a 103d c0e2 bdbb
00000250: 4ec7 3c3d 18eb 4abc fe02 62bd 7cde a93c
00000260: c09b 55bd 40e3 59bc 703a 70bc 0095 8039
00000270: 96dd 3e3d 4cf1 d0bc 3c5c 8a3c 3ac5 50bd
00000280: 92bf 0fbd 942c bdbc b061 c4bc f054 d9bc
00000290: 202e 293d 1cb9 d93c bc22 4bbd 54da 283d
000002a0: 806c 4e3b 2067 953c b8ab a9bc 8201 77bd
000002b0: 081c 6abc 6c59 febc 782d 8abc e041 d9bb
000002c0: 02f3 6ebd 9c50 703d 184e febc c056 893c
000002d0: 2e7e 09bd 440d ce3c bc38 5c3d 8a99 5cbd
000002e0: 8812 843c cc1d 79bd 803a 05bd 8036 efbc
000002f0: 4080 5ebd fcf7 073d c4d0 fabc bad6 213d
00000300: ccb5 2abd 5485 88bc fa6d 2b3d e028 e73b
00000310: 00c4 a739 b8d4 493d d89c 783c 2c63 e2bc
00000320: b0b2 53bc 5e51 6ebd 3ea1 19bd faca 3f3d
00000330: fe54 063d eea7 53bd a830 38bd d286 583d
00000340: 1ab2 0a3d 3476 dc3c b087 84bb 4ad0 64bd
00000350: 3042 c83c 5c98 f43c a48c 9fbc 5c95 6ebd
00000360: bee7 04bd e042 08bc 8efb 5f3d 4e4b 7cbd
00000370: 7017 743d 8455 ef3c 1acb 5c3d c0be b6bc
00000380: 3646 323d f463 68bd 1eb0 523d aa0a 79bd
00000390: 9073 68bd 149d 5dbd 10e9 78bc f883 713d
000003a0: 0a88 683d 687f 523c 2e1a 2c3d 1479 d2bc
000003b0: 92e9 58bd 0061 ceba a035 1e3c 90cd e93b
000003c0: 98e7 533d 10fb 73bd 586e 7f3d 3883 4fbd
000003d0: 22e8 343d a81f f23c 22db 6a3d a84c 34bd
000003e0: e0be a93c 8c91 203d f85e ab3c ec01 ebbc
000003f0: ba2e 57bd 2890 3cbd 70e7 2c3d ac5c 273d
0.051338322 0.045783326 0.03269188 -0.015852496 0.0024743825 0.025129862 -0.0056380033 0.009975918
-0.00011692941 0.032561786 0.0524827 -0.04565408 0.0026030242 0.034947045 -0.031207167 0.0054194853
-0.04850246 -0.0034004673 0.014009029 -0.026659906 -0.0032852814 -0.034155406 0.010391526 0.057165384
0.05527413 0.061324447 0.030530512 0.014589444 -0.027952641 0.047706753 0.057271473 0.0060199946
-0.0021890625 0.02521573 0.035130262 -0.04561819 0.017620385 -0.028136723 0.029814415 -0.051188968
0.0008670911 0.02210766 -0.05823555 -0.031202719 -0.057120495 0.040804975 0.0062585548 -0.053941436
0.055954434 -0.044072106 0.04154104 0.017123096 -0.035520256 -0.03705161 0.004925102 -0.060622744
-0.01538682 0.03092423 0.042149976 0.052428164 -0.01845532 -0.01901798 -0.037261948 -0.007326536
-0.030718409 0.0020707175 -0.0041539297 -0.053829126 -0.030748889 0.011555091 0.022260085 -0.0041008517
0.05909335 0.032602422 0.003635317 -0.0038548186 -0.033817343 -0.045447998 -0.03518422 0.0010254905
0.040679984 -0.022004195 -0.020717427 0.006971389 0.033526838 0.030758746 0.0073333457 -0.005294621
-0.030546114 0.025818981 0.012257144 -0.03770344 -0.029119484 0.015977748 0.017890908 0.00044513494
-0.027246416 -0.012944937 -0.02332902 -0.018063106 -0.03740257 -0.061069563 0.015377477 0.05071654
-0.0037335828 0.04480195 0.00017479807 0.028463475 -0.061030127 0.04724309 0.047804154 -0.027561985
0.047451653 -0.051758274 0.013130702 -0.0026971176 -0.036977857 0.016406327 0.030762002 0.027732827
0.00854557 -0.056788728 -0.007082507 -0.0016405582 -0.0383192 -0.04814914 0.0007202253 -0.025272578
0.020312153 -0.03217718 0.05923815 -0.014965631 -0.053085066 0.048764065 0.03247443 -0.05609227
-0.004246041 0.00385762 0.0036703125 0.03208524 0.007787809 -0.004755497 0.024670832 0.0036483258
0.007793434 0.03290402 0.035288006 -0.005794853 0.04608851 -0.012385152 -0.055178635 0.020735972
-0.052150488 -0.0132988095 -0.01466237 0.00024525076 0.04659804 -0.025505684 0.016889684 -0.05096934
-0.035094805 -0.023092546 -0.023972362 -0.02652976 0.041303754 0.026577525 -0.049593672 0.04122384
0.0031497777 0.01823765 -0.020711765 -0.060304172 -0.01428891 -0.031048499 -0.016867384 -0.0066301674
-0.05833722 0.058670625 -0.031043097 0.016764998 -0.0335676 0.02515281 0.053765044 -0.053857364
0.016122118 -0.060819432 -0.032526493 -0.029200792 -0.054321527 0.03319548 -0.030617125 0.03951142
-0.04167728 -0.016665138 0.04185293 0.007054433 0.00031998754 0.04927513 0.015174113 -0.02763518
-0.01292102 -0.058183067 -0.03750729 0.046824433 0.0327959 -0.051673822 -0.044968277 0.05286295
0.033861257 0.026911832 -0.0040444955 -0.055862702 0.024445623 0.029857807 -0.019476242 -0.05824791
-0.03244757 -0.0083167255 0.05468326 -0.061595254 0.059592664 0.029215582 0.05390463 -0.022307754
0.04352399 -0.056735948 0.05143749 -0.060801186 -0.056750834 -0.05410488 -0.015192285 0.058963746
0.056770362 0.012847759 0.042017154 -0.0256925 -0.052957125 -0.0015745461 0.00965634 0.0071351007
0.051734537 -0.059565604 0.06236109 -0.05066225 0.04416669 0.02955611 0.057337888 -0.044018418
0.0207209 0.039201304 0.020919308 -0.02868744 -0.052534796 -0.046035916 0.042212903 0.040859863
